src/model_best.pth (torch, 589346 bytes, 10 tensors)

weight f4 [32, 3, 5, 5]
00000000: 0b5b 30be 40d1 95bc 472d 043e 24d5 b3bd
00000010: 2a96 e5bd 7076 183e e99c 703d c9e0 39be
00000020: e73f debd 622b 6fbe b288 763e 542d 553c
00000030: 7890 98be a62a 00bd 3cfe cbbd 53e5 8dbe
00000040: 20b9 5cbe ce9f 3a3e 34e7 093e 6636 383e
00000050: ae01 43bd 44bb 063e 03e0 ec3d cf7a c63c
00000060: 83fb 2dbe cff9 3e3d 82db 523d c295 b83d
00000070: 1580 6d3d 0c2b 163e 3553 1b3e e0a5 823e
00000080: 77d5 0dbd 43ce 123d e2f2 11be 345f 193e
00000090: f2d4 6f3d 1385 51be 98b9 863d 1e40 2e3e
000000a0: f8b5 89be 1e74 5abe 30c8 d93d e50b 803e
000000b0: 5067 5c3e 1da0 d5bc 244c 33bd adc9 2f3e
000000c0: 901b 4cbd 6b32 fdbc ec0b 6ebe dbcd 8dbd
000000d0: e921 1b3e 3547 97bd ad2e a13d c113 7d3e
000000e0: 777b d23d 6d9c cc3d 6af2 23be fad6 c8bd
000000f0: 3c4d 5d3e 7628 7c3d e3ce 24be 45a1 35bd
00000100: 2cfb 843d e5d4 94be 4ce2 78bd 2766 3d3d
00000110: af67 6d3e 556f fcbc 9d1d 05be 27b9 d0bd
00000120: 0307 f63d 2e74 06be 31cb aebd 5260 53bd
00000130: 1c58 0f3d 856f 683e a998 2ebd e8fd 3abd
00000140: 66ae 1bbd e723 efbd c163 2ebe f24e bcbe
00000150: 4dbf 6bbe b67d 64bb 8a6c a7be ee1a c9be
00000160: b033 c0be f01e e0bd 0173 40be 16e0 a2bb
00000170: 6fa8 f4bc 5684 3d3d 6db8 113e e90f 633c
00000180: 4ae4 90bc 263f fd3c fb0a 873d 15f7 4a3d
00000190: d9d6 533e 8265 a03e 171b 943e 7917 353d
000001a0: f982 f33c cac7 633e 5ef8 b33d 116d 97bd
000001b0: 52a6 1bbe c5b7 f4bc 4d34 e5bd 2124 2bbe
000001c0: ff64 47be 0ea7 55be acba 963b 55c7 03be
000001d0: af2f 2abe 94bb 05be d58c 60bc ecfc 5c3e
000001e0: 9baf 96bc d142 8fbd 1a0e 773d fd3b f63c
000001f0: 8c33 1c3e 7abd 433e 01db 413e ab8b b43e
00000200: 0c1a 8e3e fa90 213e b523 2f3e add7 eb3d
00000210: b748 123d 4ef2 693d 8a8c b4bc 7db3 b0bd
00000220: 03bd 38be 40b1 5abd 668f 70be a2ff cbbd
00000230: 8d98 82bd e14a b8bc 89f1 eebc ca73 f83d
00000240: b5ec d6bc 0b3e 323e fc79 293e 0429 e03d
00000250: e7ab 963c 1586 ea3d 94cf 3a3d 572b e1bd
00000260: b7c4 efbd 0dba 8dbd 05f5 453d dde9 9a3e
00000270: 6f13 8d3e 0f01 8bbe a7d5 a4be b6d1 2ebe
00000280: e2f6 b83e 3f28 273e 3d73 4ebe a614 4ebe
00000290: a15b 55be d1c7 12be c224 15be b171 e53d
000002a0: f80b 8b3e 8291 133e dc14 b6be 1727 2ebe
000002b0: 79c0 9f3e fe27 8c3e 2f39 433e 7e40 563e
000002c0: af34 eebc 7025 843d e408 713d 2896 f739
000002d0: fa1b 3a3e acca 663e 8677 46be 4dec 68bd
000002e0: 9355 cc3c dbfc d43e cde8 733e c61d 4cbe
000002f0: 26e8 88bd fdf0 ad3c e8e2 2b3d 5c42 b2bd
00000300: abb6 a43d d723 603e 965b cd3d 5ee0 dabe
00000310: 8701 5ebe 8d2c c13d 4434 2a3e 73ad 9d3d
00000320: 65ac 873c 3e2e 5b3c a299 17be 9faf c9bd
00000330: 7ee0 c3bd da86 793e dd23 493e 3fb7 9cbd
00000340: f6f2 18be 6fd4 3abe 9247 4b3e 8755 5e3c
00000350: c417 4fbe ef37 95be 332b 70be f3e2 8cbd
00000360: 17ad 2abe 5de3 483d 9d54 ab3d 78aa 17bd
00000370: 30f3 dcbe cff8 88be 2cbb 703e 564f ce3d
00000380: 7fff 683d efd3 adbb 27e9 23be ae66 3dbe
00000390: 5299 533d 9a15 b33c 64ca de3d c096 cc3d
000003a0: 4599 de3d 2335 893e b1f8 643e 6770 4f3d
000003b0: ab04 c4bc 987c 303d 3420 373e 6cd1 183e
000003c0: 7d8c 44bc bb98 933c 8a1b 0f3e cf1b cebc
000003d0: 5aa9 59bd f5d1 0f3e 14c0 c53d b82d 543d
000003e0: 4f14 493e 7b83 ea3d 6709 1bbe 3f75 f13b
000003f0: 52b8 84bc 4c54 2bbe fce0 27be e8fb 8d3d
-0.1722223 -0.018288255 0.12907897 -0.08780888 -0.11210282 0.1488893 0.05874339 -0.18152155
-0.10852032 -0.23356393 0.24075583 0.013011295 -0.2979772 -0.031290673 -0.09960601 -0.27714023
-0.21554995 0.18225023 0.13467103 0.17989501 -0.047609024 0.13157374 0.11566164 0.024228482
-0.16990475 0.046624955 0.05147887 0.09012939 0.057983477 0.14664859 0.1516846 0.25517178
-0.034627404 0.035841238 -0.14252809 0.14977723 0.05855269 -0.2046092 0.06578368 0.17016646
-0.26896644 -0.21333358 0.10633886 0.25009075 0.21523786 -0.026077325 -0.043773785 0.17166777
-0.049830973 -0.03090783 -0.23246735 -0.069240294 0.15149654 -0.073866285 0.07870231 0.24714567
0.10277455 0.09990773 -0.16010442 -0.098066285 0.21611494 0.061562024 -0.16094546 -0.04434325
0.0649322 -0.29068676 -0.06076269 0.04624 0.23184083 -0.030814806 -0.12999578 -0.10191565
0.12013056 -0.13130257 -0.085348494 -0.05160553 0.034996137 0.22698791 -0.042626057 -0.0456523
-0.038008116 -0.1167677 -0.1703024 -0.3677898 -0.23022194 -0.0034864969 -0.32699996 -0.39278358
-0.37539434 -0.10943401 -0.1879387 -0.004970561 -0.029865472 0.046268784 0.14230509 0.013858774
-0.017686982 0.0309139 0.06593891 0.049552042 0.20687427 0.31327444 0.28926918 0.04421184
0.029725539 0.22244182 0.08787607 -0.0739385 -0.15200165 -0.029872784 -0.11191616 -0.16713001
-0.1947212 -0.20864508 0.0045998897 -0.12869008 -0.16619752 -0.13059837 -0.013705452 0.21580857
-0.018394282 -0.06995166 0.060316183 0.030057902 0.15254039 0.19115248 0.189312 0.35262808
0.27754247 0.1577796 0.17103465 0.11515746 0.035713878 0.057115845 -0.02203967 -0.08627985
-0.18040852 -0.053391695 -0.23492202 -0.099608675 -0.06376753 -0.022496643 -0.029167907 0.1213146
-0.026235918 0.1740648 0.1655044 0.10945323 0.018392516 0.11451355 0.04560812 -0.109945945
-0.11707442 -0.06920252 0.048329372 0.3025655 0.2755389 -0.27149245 -0.32194254 -0.17072186
0.36125857 0.16323946 -0.20161147 -0.20125064 -0.20835735 -0.14334036 -0.14564803 0.112033255
0.2715757 0.14410976 -0.3556279 -0.17007099 0.31201532 0.27374262 0.19064783 0.2092304
-0.029077856 0.06452453 0.05884637 0.00047223386 0.18174735 0.2253825 -0.19381532 -0.05686598
0.024943149 0.41599163 0.23819275 -0.19933233 -0.06684904 0.021233076 0.04196444 -0.08704063
0.08042654 0.21888672 0.10027234 -0.42749304 -0.2168027 0.094323255 0.166215 0.076990984
0.016561696 0.013377724 -0.148047 -0.0984795 -0.09564303 0.24367848 0.19642587 -0.07652139
-0.14936432 -0.182451 0.1985152 0.013570196 -0.2022391 -0.29144236 -0.23453979 -0.06879225
-0.16667591 0.049044956 0.08365748 -0.037027806 -0.43154287 -0.26752326 0.235089 0.10073726
0.056884285 -0.0053048055 -0.1600691 -0.184962 0.05165989 0.021860886 0.10878447 0.09989691
0.108690776 0.26798353 0.22360493 0.050644305 -0.023928007 0.04308757 0.17883378 0.14923638
-0.011996386 0.018017164 0.13975349 -0.025159745 -0.05314002 0.14044936 0.096557766 0.051801413
0.19636653 0.11450859 -0.15140305 0.007368713 -0.016201172 -0.16731375 -0.16394418 0.06932813

bias f4 [32]
00000000: ddbe 42be 75b4 e6bc 1fe7 65bd 0f2b 61bd
00000010: 68f2 a53b 4b27 913e 759d a4bd 2b79 b1bd
00000020: d524 8c3e 0ec7 a1be f874 55bd c6c3 8d3d
00000030: b70e ecbd 3c6b 0c3d 7eb0 5fbd a292 6c3e
00000040: 0264 a83e 608a dcbd 7d8b f63d b66f 573d
00000050: c3fc 9ebe f147 783d fbb6 b2be 1889 a5bd
00000060: 58eb d7bd e79a a43d 137e a9be 23b3 ba3e
00000070: 4ceb 5cbe b127 9ebe 6602 57be fdc3 a0be
-0.19018121 -0.02816222 -0.056128617 -0.054972704 0.0050642975 0.2835029 -0.08037845 -0.08665689
0.2737185 -0.3159718 -0.052113503 0.069221064 -0.11526244 0.034281954 -0.054611675 0.23102811
0.328888 -0.107685804 0.12038324 0.05259677 -0.31052217 0.060615484 -0.34905228 -0.08082789
-0.10542935 0.08037358 -0.33104 0.36464795 -0.21574134 -0.30889657 -0.20997009 -0.31399527

weight f4 [32, 32, 5, 5]
00000000: d89e 10bc 8c67 09bc e1ca 36bd 4be3 b33c
00000010: c9fa 4fbc 9546 c0bc 3556 473d 2ed5 983c
00000020: a073 58bd 4a01 b3bc 075b 3ebc 2e48 2a3d
00000030: 7ade e13c b8d2 77bc 89f2 45bd bd09 fb3b
00000040: 7135 063d 2b73 8f3c 3ed6 61bd 8aa3 25bc
00000050: 7178 09bd 5aaf 363d 9a92 023d a37d cc3b
00000060: c759 cc3b 573a ed3c 6352 9d3c 5045 943c
00000070: 28cb 55bb 56e9 e3bd ab20 653d cac2 bf3d
00000080: e103 643d 539d 0dbb de82 cabd b2a2 4f3b
00000090: 2d27 c83d aa2a 9d3d cc5d f4bc b4eb 6ebd
000000a0: c4b3 b4bc f5c6 bf3d 0fd1 fb3d 9697 453d
000000b0: 2b6d d5bc 3dff e5bd 0d42 d7b9 764e 0f3d
000000c0: 1b77 563d 6c46 7dbb 4e09 8ebc a73f 6abd
000000d0: 1108 073d 8b17 8e3d faff d6bc f500 ecbb
000000e0: 0348 51bd 2938 4c3b 2d3e 883c b2bf 073d
000000f0: 5b4e b7bb e99b 2ebd 39c9 0bbd 8dd5 753d
00000100: abd5 fc3d dd61 f5bc 29bd 80bc 96a0 79bc
00000110: a68f 843c 9791 8c3b 5fa7 66bc d74f b33c
00000120: 9bfb 42bc 2b4a ea3c 46cd 243d 3925 cfbc
00000130: 69f8 2bbc c480 71bc f09d 7fba 7caa 763d
00000140: d108 7dbc 1126 7fbd 047a ffbc 3a47 35bd
00000150: f4af 293d e1e0 613c 77e5 89bd 4310 b6bc
00000160: 8818 0c3c caf4 833c 3ef3 8b3c 2493 76bc
00000170: 9c03 b7bb 3076 023d e5d7 1f3d dcc0 d63a
00000180: 4329 03bc 907a ad3c 7b3c 043d 5918 873d
00000190: 3c12 29bd cf67 583c aed3 363d ee8b 033d
000001a0: d54e 47bd 5929 86bc f5ce d73d 2796 e63c
000001b0: f94a 3dba c39d e23c 9c86 e93c 3e12 e03d
000001c0: 2915 7b3d 2b77 133c 77f0 0fbd 492c 813c
000001d0: b8b5 323d 5c9c 1d3c 5727 96bc fce4 c53c
000001e0: f076 c4bc 1471 5abc 0607 663d 5466 95bd
000001f0: 6d22 4c39 aebd 653d 6552 213c 82d1 643d
00000200: 0f55 173c 632d 633d ddd5 edbb fff4 1b3d
00000210: 3fe0 793c d9b3 9ebc aa6a 273b d8e0 a13b
00000220: cd11 17bd 52e6 babd bd47 90bc 593c a13c
00000230: 3e1f 1d3d 13fe abbc 8b2f a3bd 694f 4abd
00000240: 6e8e 9fbc 6b8d c03c 1d8a 403c 70b9 89bd
00000250: c6fe 84bd 1bf2 22bc 5bc1 d7bc 7212 dbbc
00000260: ee04 0dbc 7ef7 71bb 4e0e 22bd 5684 56bd
00000270: b2bc 2abd f97c e5bc 3223 57bb 2398 193d
00000280: 6726 5dbc 4f11 91bd 31af 6cbd 2381 f1ba
00000290: c040 5cbd 70e3 c7bb 6794 693c 9349 253c
000002a0: 7cfd eb3c a82e 6abc 95bf 973b e541 043d
000002b0: b4ba 103b b5b8 d53c cd92 3b3d 63ee 1bbd
000002c0: dce9 ccbc 97b2 4e3d e011 0bbd f9e9 c8bc
000002d0: 34ee 1fbc 8039 a93c 0615 1dbd c049 74bd
000002e0: 3ce6 64bd 1e69 9a3a da98 86bc fb25 2a3b
000002f0: 820e 53bd 5df0 1ebd 117d dabc 4790 fd3b
00000300: 055a e63c e01b 1cbd 41d8 ebbb 00d2 26bc
00000310: cead 0a3c c21e 3c3b c62e 89bd 2ba0 5a3a
00000320: 16b8 7c3c f3ee 473d 9e0a 303d 7f10 d73c
00000330: 1eaa eeba 764b 09bc 1531 54bc d685 7cbc
00000340: 1ee1 08bd 0d3b 6bbd 5f47 0e3d a174 d33c
00000350: 2aab 84bd 6321 eabd b23b d4bc 8db6 3f3d
00000360: db31 c33c d951 713b 875e de3c 80d5 21bd
00000370: 1d9f 263d 5b6b 2f3c 5b24 43bd e5e7 b5bd
00000380: 1923 7cbd bf83 cfbd 6d29 f4bc ea40 3b3d
00000390: b319 033d fc0b 85bd a822 27bb 703f 82bb
000003a0: d175 af3d b39d 163c c54d 8bbd a402 273c
000003b0: d47c b73d 3282 1c3e 49c0 983d c606 a2bd
000003c0: a242 4fbc d703 fa3d ac13 c73d febe 703d
000003d0: 0d5e 64bd 485f c7bd 93a3 cb3c 864b 79bc
000003e0: 65ff 693c a916 febd 4856 66bd 8a9e 2fbd
000003f0: 27c7 103c 3327 cb3c 4b13 68bd d8a4 85bb
-0.008826934 -0.008386504 -0.044627074 0.021958968 -0.012694069 -0.023471156 0.048666198 0.01865634
-0.052844644 -0.0218512 -0.011618382 0.041572742 0.027571905 -0.015125923 -0.048327003 0.007661073
0.03276581 0.017510971 -0.055135958 -0.0101097915 -0.033562128 0.044600822 0.03187809 0.006240563
0.006236288 0.028958483 0.019204324 0.018099457 -0.0032622311 -0.1112849 0.055939358 0.09363325
0.05566776 -0.0021608665 -0.09888242 0.0031682667 0.09773097 0.07674153 -0.029829882 -0.058330253
-0.022058375 0.0936412 0.12295734 0.048240267 -0.026053032 -0.112303235 -0.00041057207 0.034986936
0.05235968 -0.003864671 -0.017338421 -0.05718961 0.032966677 0.06938084 -0.026245106 -0.0072022625
-0.051094066 0.0031161404 0.01663121 0.0331418 -0.0055940575 -0.042629156 -0.034127448 0.06001811
0.123454414 -0.029953891 -0.015715199 -0.015236041 0.016181778 0.0042898166 -0.01407799 0.021888657
-0.011900808 0.02859982 0.040234827 -0.025286304 -0.010496237 -0.014740173 -0.00097510125 0.06022118
-0.0154439965 -0.062292162 -0.031186111 -0.04425738 0.041427568 0.013786525 -0.0673322 -0.022224551
0.008550771 0.016107935 0.01708376 -0.0150497295 -0.005585147 0.031850994 0.039024252 0.0016384381
-0.008005443 0.021176606 0.03228424 0.06596441 -0.041277155 0.013208344 0.044635467 0.03211587
-0.048659164 -0.016377138 0.10537521 0.02814777 -0.00072209496 0.027663117 0.02850657 0.109409794
0.061299477 0.00900058 -0.035141435 0.015768187 0.04363033 0.0096197985 -0.018329306 0.02415704
-0.023982495 -0.013332624 0.05615904 -0.07294908 0.0001946778 0.056089096 0.009846305 0.055863865
0.009236588 0.055463206 -0.0072581605 0.038075443 0.015251218 -0.019372867 0.0025545754 0.0049401335
-0.03688221 -0.09125961 -0.017612332 0.019682096 0.038359873 -0.020995175 -0.079680525 -0.049392138
-0.019477095 0.023504933 0.011751679 -0.067248225 -0.06493907 -0.009945418 -0.026337316 -0.026742194
-0.008607132 -0.0036921198 -0.039564423 -0.0523723 -0.04168386 -0.028013693 -0.0032827375 0.037498605
-0.013497925 -0.070833795 -0.057784263 -0.0018425327 -0.053772688 -0.0061001107 0.014256573 0.010088342
0.028807394 -0.01429335 0.0046309927 0.032289404 0.002208394 0.026089052 0.045794297 -0.03806914
-0.025013857 0.050463285 -0.033952594 -0.02452563 -0.009761382 0.020657301 -0.038350128 -0.059640646
-0.05588363 0.0011780595 -0.016430307 0.002596258 -0.051527508 -0.038803447 -0.026670964 0.0077381465
0.028119097 -0.03811252 -0.0071974103 -0.010181904 0.00846429 0.0028704857 -0.066983745 0.0008339907
0.015424749 0.048811864 0.042978875 0.026252983 -0.0018208658 -0.008379808 -0.012951155 -0.015412768
-0.033417813 -0.057429362 0.034736034 0.025812449 -0.064779595 -0.11432149 -0.025907371 0.046804953
0.023827484 0.0036822467 0.027144684 -0.03951025 0.040679086 0.010706748 -0.047642093 -0.08882121
-0.06155691 -0.101325504 -0.02980491 0.045716204 0.03200693 -0.064964265 -0.0025502834 -0.0039748475
0.085673936 0.009192872 -0.06801943 0.010193501 0.08959356 0.1528404 0.074585505 -0.07911448
-0.012650164 0.12207764 0.09720549 0.058775894 -0.055753756 -0.0973497 0.024858272 -0.01521576
0.014282082 -0.12406666 -0.056234628 -0.042875804 0.008836544 0.024798965 -0.056659024 -0.004078489

bias f4 [32]
00000000: 85d3 14be 7885 10be 7ef5 7abe 9a9a 86bd
00000010: 139c 4fbe 44a8 bebd 2b10 22be 82b2 90bd
00000020: c3d1 c6bc 3a11 f4bd 494c 54be fb3c e8bd
00000030: 8182 0abe 9be9 f8bd cb9c 98be c31e 24be
00000040: 1307 d2bc d8f0 b73c 5fde 23be 0f3f 55be
00000050: cc70 8cbe cb56 0a3c b8ad 79be 40f6 7b3c
00000060: 48d9 83bc a458 15be 7fab ffbd e075 ccbd
00000070: 4c41 0dbe 4bd2 83bd 9250 63be 5838 f1b9
-0.14533813 -0.14113414 -0.2450771 -0.06572457 -0.20274381 -0.09309438 -0.1582648 -0.07065298
-0.024269944 -0.11917348 -0.20732225 -0.11339756 -0.13526346 -0.12153932 -0.29807124 -0.1602736
-0.025638139 0.02245371 -0.16002797 -0.20824836 -0.27429807 0.008443545 -0.24382675 0.015378535
-0.016094819 -0.14584595 -0.12483882 -0.0998342 -0.1379444 -0.064365946 -0.22198704 -0.0004600908

weight f4 [64, 32, 5, 5]
00000000: 7028 09bd 6576 cabc 19d9 c8bd 9367 44bd
00000010: f6bd 123c 0a1b 32bd 87e3 6f3d 97d4 65bd
00000020: 141f c3bc fa92 16bd a423 1fbd b929 283c
00000030: b0ce ed3b 72be e13c 9fef 1a3a 8833 87bd
00000040: 96bd 16bc 6568 913a 6fd1 3c3d 8d4e eb3c
00000050: 319b c6ba e4ae c839 7ef5 a33c 06e1 31bd
00000060: 11a6 1d3c 7de1 b93b 4c8a 3b3c 6de2 89bc
00000070: b885 c4bc 3500 503a 4258 203d df58 d03c
00000080: 24e1 1f3d 911b 723d 048c cb3c 3a0a 833d
00000090: 4464 783c 9c3f aebc 22d0 bdbb fa3b 7b3d
000000a0: 7790 82bc e938 fabc 8ac2 4abc bead fe3a
000000b0: 3754 5a3d 830c 00bd 41d9 eebc b25c c5bc
000000c0: ac26 03be 2f23 0a3d 094a 38bc 5c9e 95bc
000000d0: 0e99 42bd 9117 22bd 82a5 62bd 2a14 823b
000000e0: c242 3bbd de94 db3c 87d3 f63b 13ed 80bc
000000f0: e1ef 8abd 9cac fbbd 1526 8ebd b8a2 c4ba
00000100: 19c8 27bd 05f5 9dbb 9b6b 03bd 9600 2abd
00000110: 7f1b 12bd a5dc 03bc 0c7b f13c e982 843d
00000120: b6cd 9c3d 338d 553b b73f dd3c 1e6a 77bd
00000130: 8f16 7cbd c16a 623d 124e 653b 040f 8dbd
00000140: 177c cabc 8850 a8bc fbcd b03d 4daa 153d
00000150: 8a93 4b3c e42b 1f3c 8029 f1bb 3ac5 34bc
00000160: 5ac4 923c 53b6 473c 4c54 15bc a422 143d
00000170: b8cd d73d a8ea 283d ba21 d2bd 1812 82bc
00000180: ff1e 0e3e e5b2 db3d 9384 3b3c 5f3a 60bd
00000190: 55ad 783c b1e1 853b 888d b23d 0ef5 833c
000001a0: ede8 103c 824e 9aba 7b1f c3bc 4cb2 b2bc
000001b0: e165 87bb 082c a6bc 8c79 77bc f651 e2bc
000001c0: a63f edbc 8a67 09bd f55e b9bd 22ac edbc
000001d0: fb48 9abd e7cb b1bd 43a3 7d3d 9641 70bc
000001e0: caae f8bc c002 efbc a61d bb3b 5d5e dabc
000001f0: 2a9e 493c e7c5 063b 933b 35bd 6882 dbbc
00000200: 8d2d 00bc ec82 56ba e670 a0bc 7baf 93bd
00000210: d43d cbbd 0d76 acbc 477d 82bc adeb 37bb
00000220: 6b67 b8bd a297 613d 623e 853d 4bbc 51bc
00000230: beb4 b43d 8654 463d 32c9 a5bb cc8a d3bc
00000240: 2a7e 47bd 19c2 143d 91af 97bc cd56 a03c
00000250: 400c 9e3d f827 4cbb 3171 8fbc dc33 5f3d
00000260: 3f81 dc3c a110 833d 292f 05bc 45f3 a03b
00000270: eaf4 86bc 01c3 29bc 8216 1d3c 8742 7e3c
00000280: f1fa b93b fc5d 873c 0d78 95bc 8992 c7bc
00000290: 31b3 90bd a3bf 2dbd 65ce 6cbd 54d3 fdbc
000002a0: 2116 14bc 5296 023d e961 1cbd 84cb 01bd
000002b0: 880a 1c3d 04ed ff3b 97b0 8d3c 4007 b43d
000002c0: 709e 51bc 1b2b 9a3d 0339 e23c bce5 97bd
000002d0: b054 06be 238e 4e3d d549 a13c d245 b93c
000002e0: 1c2d ffbb 441f 21bd c992 34bc f8e2 f1bc
000002f0: cbc5 bd3d d7ef 4abc d6ec 68bd 8659 72bc
00000300: d2d5 e8b8 d5a8 65bd f098 22bd 236a 4cbb
00000310: 971a 46bd 45d0 fc3c 5b77 5a3c e23d 16bd
00000320: 595e 843d bb59 fcbc e341 423d 8f18 043d
00000330: ef10 493c 5414 9bbd c4dd 933c 5270 99bc
00000340: edbf 853d 922b 09bb 6c07 8d3c bcc0 8f3c
00000350: 96ff c03c 08fe ddba 5720 413d 39e7 a93d
00000360: e216 59bd bc01 7dbd 7fe9 893d 64d0 c7bd
00000370: 6b95 d3bc f1b8 68bd 628e dabd b7b6 95bd
00000380: 4549 99bd efe2 273d b1a1 2f3d c28e 3b3d
00000390: 5bed e83c b7be d93b b5c8 c53d c68b b6bb
000003a0: 651f 01bd 925a 91bd 7ffc 16bd 1670 39bd
000003b0: 7e3c 31bd 1068 14bd 4b30 50ba 837f d2bc
000003c0: 3ff9 843c 4e7b ac3c 0332 463c 811f 0bbd
000003d0: 181b 5fbd 3373 cabc 40a0 f7bd 409c b03c
000003e0: 300d 4a3d 0658 efbc f771 973c a2e7 e63b
000003f0: a81e 1a3e c0be 273d e517 9abc 4512 dabb
-0.03348583 -0.024714658 -0.09807033 -0.04795034 0.008956423 -0.043482818 0.058566596 -0.056110945
-0.02381853 -0.03676126 -0.03885235 0.010263854 0.007257305 0.027556632 0.000591034 -0.06601626
-0.009200474 0.0011093734 0.04609817 0.02872398 -0.0015152452 0.00038277276 0.02001452 -0.04342749
0.009622113 0.0056726323 0.011446547 -0.016831601 -0.023989543 0.0007934601 0.03914667 0.025433002
0.03903307 0.05910832 0.024847038 0.06398435 0.015160624 -0.021270566 -0.0057926336 0.061336495
-0.015938027 -0.030544715 -0.012375483 0.0019430441 0.05330297 -0.031261932 -0.02915633 -0.024092052
-0.12807721 0.03372496 -0.01124812 -0.018263988 -0.047509246 -0.039573256 -0.05533362 0.003969689
-0.045717962 0.026804384 0.0075325402 -0.015738046 -0.067840345 -0.12288782 -0.06940857 -0.0015002107
-0.040962312 -0.0048204684 -0.032085042 -0.041504465 -0.035670754 -0.008048211 0.029477619 0.06470282
0.07656424 0.0032585382 0.02700792 -0.060403936 -0.06154495 0.05527759 0.003498916 -0.0688763
-0.024717374 -0.020546213 0.08633038 0.036539365 0.012425313 0.009715054 -0.0073596835 -0.011033351
0.017915893 0.012189466 -0.009114336 0.03616585 0.105372846 0.04123941 -0.10260339 -0.015877768
0.13879012 0.10727481 0.011445182 -0.054743167 0.015178044 0.0040857424 0.08718401 0.016108062
0.008844596 -0.0011772665 -0.023818722 -0.021813534 -0.004132018 -0.020284668 -0.015104663 -0.027626973
-0.028961014 -0.03354601 -0.09051315 -0.029012743 -0.07533451 -0.086814694 0.061923277 -0.014664074
-0.030356783 -0.029176116 0.0057103215 -0.026656324 0.012305776 0.0020564736 -0.044246268 -0.026795581
-0.00782336 -0.0008182961 -0.019585084 -0.072112046 -0.09923902 -0.021052385 -0.015928878 -0.0028064058
-0.090041004 0.05507625 0.06506039 -0.01280124 0.08823536 0.04842045 -0.0050593847 -0.02582302
-0.048704304 0.03631792 -0.018516334 0.01957264 0.0771718 -0.0031151753 -0.017510029 0.054492816
0.026917098 0.06399656 -0.00812892 0.0049118125 -0.016474206 -0.010361434 0.009587886 0.015518791
0.0056756665 0.016524307 -0.018245721 -0.024361866 -0.07065428 -0.042419087 -0.05781402 -0.030984558
-0.009038479 0.031881638 -0.038179312 -0.03168823 0.03809598 0.007810237 0.017296119 0.08790445
-0.012794122 0.07527753 0.027615076 -0.07416865 -0.13118243 0.05042852 0.019688526 0.0226163
-0.00778736 -0.039336458 -0.011021324 -0.029527172 0.09266242 -0.012386284 -0.05686649 -0.014791852
-0.00011102449 -0.056069214 -0.039696634 -0.0031191192 -0.0483652 0.03086103 0.013334121 -0.03668011
0.06463308 -0.030804506 0.047426116 0.032249983 0.012272104 -0.07572237 0.018050082 -0.018730316
0.065307476 -0.002093051 0.017215453 0.017547958 0.023559373 -0.0016936669 0.047149982 0.08296055
-0.05300034 -0.061769232 0.06733989 -0.09756544 -0.025828084 -0.056817 -0.106716886 -0.07310241
-0.07484678 0.040987905 0.04287881 0.04579044 0.028433492 0.0066450494 0.096574225 -0.0055708615
-0.03152408 -0.07097353 -0.036861893 -0.04527291 -0.04327058 -0.036232054 -0.00079417665 -0.025695568
0.016232131 0.02105489 0.012096885 -0.03396559 -0.054469198 -0.024713134 -0.12091112 0.02155888
0.049328983 -0.029216778 0.01848696 0.0070466558 0.15050757 0.040953398 -0.018810222 -0.00665501

bias f4 [64]
00000000: b799 76bc 01a2 f9bd b877 0bbe 9fbe 9dbd
00000010: c1cf 28be b317 2bbd 68f1 73bd d6d7 f3bd
00000020: b930 d4bd b6c3 61bd 54ac d3bb 0174 d7bd
00000030: 8988 663d 167e f1bd f795 16be f2e4 86bd
00000040: 3cf9 28be 3fb2 d1bd 5779 b43c 9258 62be
00000050: 90d2 98bc 493b 2dbe 961d 45be ade6 a2bd
00000060: 6772 cdbd b746 89bd 0d37 25be 1d9a c1bd
00000070: 16f2 57bd f153 81bd 6063 acbd 5e2c eabd
00000080: ccd0 5fbe f6cd d8bd dd85 27bd 7f2e f3bd
00000090: 4474 a3bd 3f7c 06be f2a4 bcbd c8c5 abbc
000000a0: 83a4 6dbd 1d6c d4bd b12a 2abd 6702 fdbd
000000b0: cd0e 60bc bf89 0ebe a002 0abe 9617 533c
000000c0: 9cab c1bd 3c89 1dbe 7bb5 ffbd 9817 62bd
000000d0: 0fed 80bd 2df9 b4bd 099d 10be 0b68 93bc
000000e0: 5bdc b5bd 0d45 f5bd 98bc 86bd 6dad 24be
000000f0: 236d 92bc b243 32be 094a 16be 2990 f8bd
-0.015051297 -0.12189103 -0.13619888 -0.07702374 -0.16485502 -0.04177065 -0.059556395 -0.11906402
-0.103608556 -0.055118285 -0.006459752 -0.10520173 0.056282554 -0.11791627 -0.14705645 -0.065866366
-0.16501325 -0.10239076 0.022030516 -0.221041 -0.018655092 -0.16917147 -0.19249567 -0.07954154
-0.10031586 -0.06702941 -0.16134281 -0.09453223 -0.052721106 -0.06314839 -0.08417392 -0.114342436
-0.21856993 -0.10586159 -0.040899146 -0.11874103 -0.0798116 -0.13133334 -0.09211148 -0.020968333
-0.05801822 -0.103721835 -0.04154462 -0.12353974 -0.013675404 -0.13919733 -0.13477564 0.012884041
-0.0945656 -0.15384382 -0.124857865 -0.055198282 -0.06295215 -0.08836589 -0.14122404 -0.017993947
-0.0887992 -0.11976061 -0.0657894 -0.16081782 -0.017874306 -0.17408636 -0.1467668 -0.12136871

weight f4 [64, 1024]
00000000: 3c64 9e3d a17f 8fbd 17f9 48bc 01b3 333d
00000010: 74cf 013d 296d fab8 707a 82bc 00a4 8d3d
00000020: 3301 8f3d 86cc 433d f847 25bd aca0 fbbc
00000030: 77e1 093c 22a7 5cbd ab2f a2bc c040 c3bc
00000040: 2296 bc3c 46dc 01bd e8e1 a13a 56fc 17bd
00000050: 4c40 d3bc baf9 e53c 6db4 0f3c 6e14 6dbb
00000060: d56f 96bd f9da e6bc f8c8 7a3d 866b ab3c
00000070: 7bd2 2c3d cfa6 013d f770 4bbd fc23 8e3c
00000080: 36f9 07bd 91b3 8e3c 2379 9cbc f510 bc3c
00000090: 73fd f1bc 7dbc b8bc fb66 11bb c4d2 44bc
000000a0: 1294 1e3d 4dc2 0e3d b558 8ebc 155b 9d3b
000000b0: fe35 863c 0eb3 9cbb 98b7 07bd fd81 74bc
000000c0: 760d 303d bbb5 133c 8133 a5bb 31bc c8bc
000000d0: ff4c c3bc 3b83 9f3c 5f29 1a3d 6291 0d3c
000000e0: 0af5 f0bb 9165 88bb 9e15 a3bc ffa9 ec3c
000000f0: 181d 9a3c 6a23 0d3c f8f6 00bd 2b02 5b3b
00000100: 1f1d f0bc 5a93 df3b d29a 173c 064d 623c
00000110: ef4b 61bc e50d 0fbc ad5e 8e3c 9e15 f93c
00000120: fa47 8c38 b8d9 56ba 4cc0 623b 690c a83c
00000130: 8c24 eb3c 1547 5cbd e601 daba 5e27 7c3c
00000140: 5b40 813c 6b47 72bd 9511 403d b1e0 2c3d
00000150: a3ac f23c 04cd 92ba a4eb 36bd 8b75 893c
00000160: dd23 f2bc 802e 063c 83ec 303d 98ce de3c
00000170: f7f0 923c 39b2 1dbd 04cc f83b ba59 cd3c
00000180: 3dea a2bc 8ef8 95bc d39b 223d dbc0 5dbc
00000190: d193 1ebd e501 55bc afe4 95bd 500e 3bbd
000001a0: 6823 6b3c b880 8cbd 50ee 1dbd 9182 22bd
000001b0: 4963 fa3c 839b b13c 2aa1 1b3d 18dd 8b3c
000001c0: a0ec a8bc 366a 54bc 4630 4a3d 7d3c 0e3b
000001d0: fbb4 113c 0c8e 513c fc6b 5dbc a058 023b
000001e0: 0225 c63b 9700 423c 6abc fe3a 5cdf b63c
000001f0: 33b8 1cbd 4d98 193c 78e0 03bd 9409 ad39
00000200: 0a1e 8f3d 7970 59bd c2c6 023a 8e25 663c
00000210: 2306 9abc d398 b5bc f063 3abd 7c20 823d
00000220: 5853 20bd 6585 643c 0158 bb3c 3fef 0a3d
00000230: ec5b 32bd 91fa 94bc 5280 7dbd 3781 80bc
00000240: 434c 233d 52c8 8d3b 04b2 ec3c 0f50 9f3b
00000250: 62f1 09ba 6821 b1bc 6015 05bd bbf1 843d
00000260: 6387 e43c e6c1 ddbc 6dcc 59bc 2a44 dbbc
00000270: 1769 bb3c af90 fc3c 9ce2 07bd 37f3 ce3b
00000280: e0e7 12bd b91a a83c 2c40 41bd 77c7 583d
00000290: c3cb 75bc 98f9 0ebc 170b 2ebb 275b 693b
000002a0: 946f 01bd 6ba3 83bc 2495 393c 5fd3 f2bc
000002b0: 6a78 a2bc 1148 523d cdaf b43d a11a 6abd
000002c0: 7a29 f7bc ab5f aebc 1d84 c2bc c376 3ebd
000002d0: bf64 f93b 376c 10bd 6ef7 c03b 5061 07bd
000002e0: c7ce 933c 8897 823d 9336 ce39 0e3b c5bc
000002f0: 32f7 d13c 9977 0cbd 1427 823b e1e5 f3bb
00000300: 1358 e4bb c1b4 183d da29 773d 1c8b ae3c
00000310: 0c89 123c 0995 c7bb 057c 8abd 4999 8dbc
00000320: de65 0a3b db44 65bd f916 70bd a18b b8bc
00000330: 43aa 4a3c 02f1 a23b 43cf 663d 5e44 febb
00000340: 74bb 8e3b 3fac 183b 102e 713b 13e0 38bc
00000350: 2c4b 043d 85f0 3e3c e6b3 963c e673 3d3b
00000360: c4cc 053d 9aaf 27bc 55b5 063c 512e e23b
00000370: a95a 943c 2ec8 25bd dc1f 1a3c 1c7d dcbc
00000380: 20d6 313c 769a 07bc ad57 33bd 270b 373d
00000390: 8f12 043d f2bc 0b3c 2bd5 08bc 17ea e53a
000003a0: 31a1 273d 6052 893d 06cd 8638 978c bcb9
000003b0: 925d da3c b08a 20bd 7f82 163d bebd 08bd
000003c0: a119 863c 6325 ed3c b045 2c3b a104 423d
000003d0: a458 4f3d 357b 9539 2434 f03c 084e 34bd
000003e0: 744b 90bc 510c 8bbc 8940 60bd f0ac e5bc
000003f0: 0be9 eebc 7ff4 c7bb d34c c03c 230f 08bd
0.07733962 -0.07006765 -0.012266419 0.043871883 0.031691983 -0.000119412616 -0.015927523 0.06916046
0.069826506 0.04780247 -0.040351838 -0.030716263 0.008415571 -0.053870328 -0.01979812 -0.023834586
0.023020808 -0.03170421 0.001235065 -0.03710588 -0.025787495 0.02807318 0.008771044 -0.0036175507
-0.07345549 -0.028180586 0.061226815 0.020925295 0.042192917 0.03165322 -0.04966828 0.017351143
-0.03319665 0.017419608 -0.019100731 0.022957304 -0.0295398 -0.022550816 -0.0022186625 -0.012013141
0.03871543 0.03485327 -0.017376283 0.0048021176 0.016383167 -0.004782087 -0.033134073 -0.01492357
0.042981587 0.009015496 -0.00504154 -0.0245038 -0.023840426 0.019471755 0.03763711 0.008640619
-0.0073534297 -0.0041624983 -0.019907769 0.028889654 0.018812701 0.0086144 -0.031485528 0.003341804
-0.029310761 0.0068229856 0.009253221 0.013812309 -0.013751014 -0.00873134 0.01737913 0.030405816
6.689127e-05 -0.0008195895 0.003459948 0.02051373 0.02870395 -0.053778727 -0.0016632646 0.015390245
0.015777757 -0.05915014 0.046891768 0.04220647 0.029623335 -0.0011200015 -0.04465832 0.016779682
-0.029558117 0.008189797 0.043194305 0.027198121 0.017937167 -0.038500044 0.00759268 0.025067199
-0.019887084 -0.018306997 0.039699387 -0.01353475 -0.038715187 -0.01300094 -0.073190086 -0.045667946
0.014351703 -0.06860489 -0.03855735 -0.0396753 0.030564921 0.0216806 0.037995495 0.0170732
-0.020620644 -0.012964776 0.049362443 0.0021703534 0.008893247 0.012790214 -0.013514515 0.001988925
0.006046892 0.011840961 0.0019434814 0.022323303 -0.038261604 0.00937469 -0.032196492 0.00033004268
0.06988151 -0.053085778 0.00049887237 0.01404704 -0.018801754 -0.022167599 -0.045505464 0.06353852
-0.039141983 0.013947819 0.022869112 0.03391957 -0.043544695 -0.018185886 -0.061889954 -0.015686614
0.03986765 0.0043268586 0.028893478 0.0048618386 -0.0005262104 -0.021622375 -0.032491088 0.06491419
0.027896589 -0.027069997 -0.013293368 -0.026765902 0.02287726 0.03083071 -0.033175096 0.0063156146
-0.035865664 0.020520555 -0.04718034 0.0529246 -0.015002194 -0.0087265 -0.0026556903 0.003560731
-0.03160055 -0.016069135 0.011327062 -0.029641805 -0.019832809 0.05133826 0.08822594 -0.0571543
-0.030171145 -0.021285852 -0.023744637 -0.04649998 0.007610887 -0.03525945 0.005888871 -0.03305179
0.018042935 0.063765585 0.00039332043 -0.024076011 0.025630567 -0.034293745 0.0039719436 -0.007443175
-0.006968507 0.037281755 0.060342647 0.021306567 0.008943807 -0.0060907644 -0.06761936 -0.017285006
0.0021117846 -0.05597387 -0.05861566 -0.022527518 0.012369695 0.004972578 0.056350004 -0.007759615
0.0043558422 0.0023296026 0.0036801137 -0.011283892 0.032298252 0.011654024 0.01839633 0.0028908192
0.032665983 -0.010234738 0.008221944 0.006902494 0.018109636 -0.04047411 0.00940701 -0.026915126
0.010854274 -0.008276572 -0.043784786 0.04468837 0.03224426 0.008528935 -0.008351604 0.0017541078
0.04092521 0.06705165 6.4278065e-05 -0.00035962902 0.026655946 -0.039194763 0.036745545 -0.033384077
0.016369643 0.028948491 0.0026286654 0.047367696 0.050621644 0.0002851129 0.029321738 -0.04401973
-0.017614104 -0.016973646 -0.054749046 -0.028036565 -0.029163858 -0.0061021443 0.023474133 -0.03321756

bias f4 [64]
00000000: 2f99 2abb c4cd 103d 8187 263d 60c5 a2bc
00000010: 7892 cb3c 99b5 b33b 5813 653d b7b3 453d
00000020: 9054 443d 0685 8d3a 667f 603c 824e d13c
00000030: d1aa 94bc 6be7 d93c b557 efbc 3786 a6bc
00000040: 65ad 4ebd 779f dc3c 6c7a 3abc ce50 113c
00000050: 64ef 09bd abf6 4ebd 46ca 80bc 6b8d 8abd
00000060: 12fa 4dbd 0568 b83b 4ab4 babd f4e1 99bd
00000070: ca9e 45bd f28f 233d dbc2 a63c 15ae 343c
00000080: 46da 563b 61d8 85bd 4023 6e3c efea 2abd
00000090: f83d a9bd bfdd 743c 1a05 983c 8c07 0cbd
000000a0: ebe5 11bd ef9d 0abd 802d 20bd f857 70bd
000000b0: 6185 113d 9f9d 87bc 9186 023d d8e6 6abd
000000c0: 3e58 433b 68b0 5e3d 5b8e 93bc a9c5 0abc
000000d0: fe0a 5c3d d799 be3c 5943 c03b 9ddc 223c
000000e0: 6e15 e3bc 618f bdbc 2eb8 7dbc 2928 e33c
000000f0: a9fe 4bbd 137c acbd 9144 e9b9 3edc af3b
-0.0026031246 0.035352483 0.04065657 -0.019869506 0.024850115 0.0054842946 0.05592665 0.048267093
0.047932208 0.001079709 0.013702249 0.02555013 -0.018147858 0.026599606 -0.029216627 -0.02032767
-0.05045833 0.026931508 -0.011381727 0.008869363 -0.033675566 -0.05052821 -0.015721451 -0.067652546
-0.050287314 0.0056276345 -0.09116419 -0.075138 -0.048247136 0.0399322 0.020356586 0.0110278325
0.003278391 -0.065354116 0.014534771 -0.041727956 -0.08263773 0.0149454465 0.01855712 -0.034186885
-0.035619657 -0.033842023 -0.039105892 -0.058677644 0.03552759 -0.016554652 0.031866614 -0.057349056
0.0029807235 0.054367453 -0.018012216 -0.008469977 0.05372142 0.023266716 0.0058674035 0.009940294
-0.02772018 -0.023139657 -0.015485806 0.02772911 -0.04980341 -0.08422103 -0.0004449231 0.005366831

weight f4 [10, 64]
00000000: 743f 953c ec9d b23d 9484 87ba 0a24 39be
00000010: 7c16 eb3c 5e06 583d c119 13bb 469e 203c
00000020: 5041 c3be 37c3 7abe 4ea2 cabe ac9d 8c3d
00000030: 1fc1 743e 9342 b6be 2827 44be f4a8 f9bd
00000040: 2975 993d f8c3 8b3e caaf 8ebe 872e 803e
00000050: de6b 993e 429b b13e 5a59 afbd 53e9 783d
00000060: 7272 1dbe a07e 84be d0e6 0c3d 6aaa b23e
00000070: b34f a63e 0a51 e03d a0d7 8fbd 6931 6abd
00000080: 126a 723d a552 733e b165 01be 7bc3 a3be
00000090: a8ac a83e bbfe 69be ac1d dbbd eb96 143e
000000a0: ede6 7b3d 6acb 5cbd db24 aabd d45c d33d
000000b0: 03cc 8abc db72 c83e d9e3 bfbe 4b5d 6bbd
000000c0: 5eba 8b3e 9f00 4ebd d93d 303d a2be 943e
000000d0: 60f5 e9be 5ae1 7abe 8e7d 08bd 52bb af3d
000000e0: a63e 30be d489 833e 0766 313d 4fbc a7be
000000f0: ca62 d1bd 9683 103e 2255 b9bd 427a 54be
00000100: 3cca 60be eb3b 5dbe 93d1 663c b3e5 1a3e
00000110: 954e 2abe 9103 77be 0917 89be 8c56 00bf
00000120: 490e 96be 5fd6 13be 2098 973e 0616 063e
00000130: ba99 9abe 042f 393e 44b9 103e 6b84 bd3e
00000140: 4e43 f1be 4d25 9c3d 0121 443e c2bb 9fbd
00000150: eab4 40be 5cc4 dbbe 2a7d ae3e 4bb5 e1bd
00000160: 0c20 ae3e 1de8 8cbe 2a86 3a3e 9628 e6bd
00000170: bf16 623e 8934 753e f44a e6be 06c4 833e
00000180: 5b72 aabe 1351 ae3e 05f7 843d 84b9 b43e
00000190: bf3d d23e d7dd 493d 7fcc 9cbe db3d 213e
000001a0: 36e5 573d 4d50 843d 04c1 b33e e2b2 9f3e
000001b0: b214 66be 62a9 253d b14b 81bc 547b 213d
000001c0: b589 883d 95d0 48be 54e5 1f3d d547 d4bc
000001d0: 6645 9b3e 90c1 75bd 02c3 d4be 03a9 78be
000001e0: 51b9 c6be 7263 c0be e2f5 02be 323c 6c3d
000001f0: 79fb 0f3c a33a 0c3f 05f8 ad3e 0e5d bebc
00000200: 547f e9bd 4ae8 083e 534b c73d 2201 363d
00000210: 3b86 4d3e 098c 1ebd c4f6 6dbd 8a59 b53d
00000220: 1344 8dbd 0d8f 12be 59d0 5e3d 8828 35bd
00000230: 0e57 22be 835e 183d 30c7 90be 0181 903e
00000240: adc9 4b3e 26c4 f43d 8d25 55be 1c78 9b3e
00000250: ebf0 853e f786 37be 7d12 e3be 2b63 a2be
00000260: d81c 4fbe f147 423e 823b 2fbe 616d a03d
00000270: b613 65be ecdd 863e d781 533e a7bd 91bd
00000280: 2340 89be a2ce b2be b92a 5e3e 2377 26be
00000290: 84d4 153c f1ed 34be c642 823c 657e 5cbe
000002a0: 9b48 4cbe 7027 933e 67bb ddbd a5a8 bdbe
000002b0: bf8d 5c3d 73d1 12be 9382 51be 26f2 a63e
000002c0: 3973 d3bd 93ed 4a3e 8f29 9c3e 7c25 07be
000002d0: 4983 25be 578a 943e 0c3b 2d3e af00 03be
000002e0: bfa6 243e 162b c0be 3f14 66bd 564d 57be
000002f0: 51f5 a03e 2823 02bf 72c2 5ebd 6998 9dbc
00000300: 0198 263c ada8 9cbe d7fd 883e 25a4 5dbe
00000310: e02c 623e 4f6d 243e 149c be3d 6812 5d3e
00000320: 0703 c03d 1d5a 55bd 2610 23bd c191 9abe
00000330: 578b 133e 818a ba3d 4a24 523e 55e4 c53d
00000340: 4f51 c73d 813a 95be 9f20 f2bd acd7 4d3d
00000350: 990a 54be 2656 75be fe33 763d 4684 603e
00000360: 4c67 21bd 58e0 80be 186b 903e d0b6 06be
00000370: 8c74 b5bd 8dcf 88be 5de5 133e f7b0 1fbe
00000380: 2010 143d 74da 3b3c 47c8 cabd ecae 9d3d
00000390: ebd0 eabd 5054 e63d 4726 2fbe 21e1 87be
000003a0: 2254 a53e 61be 9e3d ab26 79bd 1df8 79be
000003b0: 6ae1 223d 4b83 99bd 70a8 2f3d 9b41 243e
000003c0: bdae 90bd f384 9ebe 6f4e 2fbd cc43 dabd
000003d0: 29de 593d 13f4 cb3c 4c15 cb3c 51c2 07be
000003e0: f519 9a3e 05bb 7c3d 2e49 b93d 9eae 9f3d
000003f0: 6a66 7bbd 3c3b a6bd 4e7d 4e3d fd96 2bbd
0.018218733 0.087215275 -0.0010339194 -0.18080154 0.028697245 0.052740447 -0.002244577 0.00980336
-0.38135767 -0.24488531 -0.39576954 0.06866011 0.23901795 -0.35597667 -0.19155562 -0.121904284
0.0749305 0.2729795 -0.2786849 0.25035498 0.2996511 0.34688765 -0.08561964 0.06076939
-0.15375689 -0.25877857 0.034399807 0.3489564 0.3248268 0.10952957 -0.07023549 -0.057176027
0.059183188 0.23761995 -0.12636448 -0.31985077 0.32944226 -0.22851078 -0.10699019 0.14510696
0.061499525 -0.05390493 -0.08307811 0.1032044 -0.016942983 0.39150128 -0.3747852 -0.057462018
0.27290624 -0.05029356 0.043027733 0.2905169 -0.4569502 -0.24500027 -0.033322863 0.085806504
-0.17211398 0.25691092 0.04331019 -0.32760856 -0.10223921 0.14112696 -0.09049441 -0.20749763
-0.21952146 -0.21604888 0.014088052 0.15126686 -0.16631539 -0.24122454 -0.26775387 -0.5013206
-0.29307774 -0.14437245 0.2960825 0.13094339 -0.3019541 0.18084341 0.14133173 0.3701509
-0.47121662 0.07624302 0.19153215 -0.07799484 -0.18819013 -0.42923248 0.34079868 -0.11020907
0.34008825 -0.27520838 0.18215242 -0.1123821 0.2207899 0.23945822 -0.4497906 0.25735492
-0.3329037 0.3404623 0.06492428 0.35297787 0.41062734 0.04928383 -0.30624768 0.15746252
0.052708827 0.06460629 0.35108197 0.31191164 -0.22468832 0.04044474 -0.015783163 0.039424255
0.066668905 -0.19610818 0.039037064 -0.025913158 0.30326384 -0.05999905 -0.4155503 -0.24283223
-0.3881326 -0.3757587 -0.1278911 0.057674594 0.008787983 0.5477697 0.33978286 -0.023237731
-0.11401239 0.13369861 0.09731164 0.044434674 0.20070736 -0.038707767 -0.058096662 0.08854969
-0.0689775 -0.14312382 0.054397915 -0.044228107 -0.15853521 0.03719951 -0.28276968 0.28223422
0.19901152 0.11951475 -0.20815106 0.30365074 0.26160368 -0.17922579 -0.44350043 -0.31716284
-0.20225847 0.18972756 -0.17112544 0.07833362 -0.223708 0.26341188 0.20654999 -0.071162514
-0.26806745 -0.34923273 0.21695985 -0.16256385 0.009144906 -0.17668892 0.01590098 -0.2153259
-0.19949572 0.28741026 -0.1082676 -0.37042728 0.053846117 -0.14337711 -0.20459966 0.3260662
-0.10324711 0.1981719 0.30500457 -0.13197893 -0.16163363 0.29011795 0.16917056 -0.1279323
0.16079234 -0.37532872 -0.056171652 -0.21025595 0.31437162 -0.50834894 -0.054384656 -0.019237714
0.0101680765 -0.3059744 0.26756164 -0.21644647 0.22087431 0.16057323 0.09307113 0.21589053
0.093755774 -0.05208789 -0.039810322 -0.30189326 0.14408623 0.09108449 0.20521656 0.096626915
0.09732305 -0.29146197 -0.11822628 0.05025451 -0.20707168 -0.23958644 0.060108177 0.21925458
-0.039405152 -0.2517116 0.28206706 -0.13155675 -0.0886012 -0.2672085 0.14442964 -0.1559485
0.03614819 0.0114656575 -0.09901481 0.07699379 -0.11465629 0.1124655 -0.17104445 -0.26538947
0.3229075 0.07751156 -0.060827892 -0.24411054 0.039765753 -0.07495745 0.042885244 0.16040652
-0.07064579 -0.30960807 -0.04279941 -0.106574625 0.053190384 0.024896657 0.024790429 -0.1325772
0.3009793 0.061701793 0.09047161 0.077969775 -0.061376967 -0.08116767 0.05041247 -0.04189204

bias f4 [10]
00000000: 751e 0ebd 96bc 1b3d cb5d b9bd 03c1 c83d
00000010: ec4c 973d c1d9 75be d903 473d b380 933c
00000020: 41f0 c9bd a599 6abd
-0.034697015 0.038021646 -0.09051093 0.09802439 0.073877186 -0.24008848 0.048587654 0.018005705
-0.09860278 -0.057275433
